W3/03-cifar-cnn/model_cifar.pt (torch, 136391 bytes, 10 tensors)

block.0.weight f4 [6, 3, 5, 5]
000000 63 2c 7c bd 41 8a 0e 3e 6d 49 bb 3d bd e1 a9 3e
       -0.061565768 0.13919927 0.09144864 0.33180037
000010 bb fc 65 3e 22 89 aa be c8 f9 54 be 11 18 b6 bd
       0.2245969 -0.3330775 -0.20798409 -0.08891309
000020 ce 09 a4 3d 0c 78 53 be ed 45 4a be b1 8c e2 bd
       0.080096826 -0.20651263 -0.19753237 -0.11061991
000030 17 6f 45 3e 9d d2 86 3e 52 4b 1d 3d 62 4e ac be
       0.19280659 0.2633256 0.03840191 -0.3365355
000040 5f 00 65 be fe 61 e5 bc 56 e4 93 bd b2 70 a0 3c
       -0.22363423 -0.028000828 -0.07221286 0.019584987
000050 63 f1 01 3e 16 df e4 bd 86 6a 32 be ee b6 a0 bd
       0.12689738 -0.11175363 -0.17423448 -0.07847391
000060 6f b6 d7 bd cd 80 ac bd 98 fc 97 bc 72 12 bc 3c
       -0.10532843 -0.08423004 -0.018553063 0.022958014
000070 42 94 0c be 17 4e dd bd 92 96 4d be 7f 9a 18 be
       -0.13728431 -0.1080591 -0.2007697 -0.14902686
000080 c3 f8 1e be 9d 72 50 be 93 27 5d be f3 bc 46 be
       -0.15524583 -0.20356221 -0.21597128 -0.19408016
000090 6c 8d 36 be 8f 6b 47 bc a3 c0 9b 3c 3f 0a 73 3c
       -0.17827386 -0.01217164 0.019012755 0.014833986
0000a0 eb db 98 be a9 b8 75 be 9e 6b c4 be 4b fa 07 be
       -0.29855284 -0.23996224 -0.38363355 -0.13279073
0000b0 8d f3 b1 3d f0 af 02 be c7 b8 21 be a4 69 95 be
       0.08689032 -0.12762427 -0.15793143 -0.2918216
0000c0 67 98 af be 8d b6 bb be 76 7c ab 3e de 37 8e 3e
       -0.3429596 -0.36662713 0.33493394 0.27776998
0000d0 d1 4a 90 3e 1d 28 a7 3d 5e 3e 95 bc 0d 0d 0b 3e
       0.2818208 0.08161948 -0.018218216 0.13579197
0000e0 f6 5d dc 3d d4 1a db 3d 92 3a 42 3e a7 94 6b bc
       0.10760109 0.106984764 0.18967655 -0.014378703
0000f0 4f 8e 7d 3e 78 b6 99 3e ea be 0b 3e 34 3f aa 3e
       0.24761318 0.30022025 0.13647047 0.33251345
000100 ae 13 ad 3e f6 52 48 3e aa 0d fb bc 7c a0 d5 b9
       0.33804077 0.19562897 -0.030646164 -0.00040746096
000110 ff 8f f9 3d 43 44 b7 3e c7 76 e2 3e 8c 5b c1 3d
       0.12185668 0.35794267 0.44231245 0.09441289
000120 12 98 38 3d 32 4d 40 be ba 7b de bc 5b 43 17 bd
       0.0450669 -0.18779448 -0.027158607 -0.03692947
000130 ed a5 86 bd 92 ac 12 bc e5 56 0f 3d 04 39 bd bd
       -0.065746166 -0.008952277 0.03499498 -0.092393905
000140 ab 84 2c 3d 68 a0 99 3d 6e f5 3f 3d 37 29 d4 3c
       0.04211871 0.07501298 0.04686492 0.025898559
000150 f6 7f 61 3d 67 2b 54 bb 35 a3 9c 3e fe 37 ec 3d
       0.055053674 -0.0032374503 0.30593267 0.11534117
000160 32 ab 63 3e a5 ad 4c 3e 6a 49 26 3e 73 82 aa 3e
       0.22233275 0.19988115 0.16238943 0.3330265
000170 87 dd 21 3e 20 c5 5d 3e e8 ae 87 3e 0a db 3a 3e
       0.15807162 0.21657228 0.2650063 0.1824762
000180 2c 36 4d 3e 35 75 86 3e 3c 8f bf 3e 06 80 5c 3e
       0.20040196 0.26261297 0.37413967 0.21533212
000190 14 02 20 be eb b5 ac bd e2 96 3b bd 49 fe 9f 3d
       -0.15625793 -0.084331356 -0.04579819 0.07812173
0001a0 52 77 1b be 9d 89 32 be ae 55 fc bd 9c bf c0 bd
       -0.15182236 -0.17435308 -0.123210296 -0.094115466
0001b0 b6 77 e1 bc 46 cf 6a be e4 f1 6d be 40 1c 6b be
       -0.027522903 -0.22930631 -0.23236805 -0.22959995
0001c0 ec 1a 49 be 13 de de bd 26 42 c6 bd 2d b3 e7 bd
       -0.19639176 -0.10882201 -0.096805856 -0.11313472
0001d0 a5 53 83 be 6c eb 67 be 81 7f 08 be e2 12 7a be
       -0.25649753 -0.226484 -0.13329889 -0.24421266
0001e0 66 c6 8d 3c e0 79 a5 bd e7 8c 0f be 0c 7a 9b be
       0.017306518 -0.080798864 -0.14018594 -0.30366552
0001f0 73 8c 49 be 4e 74 7e bd 6c eb ef 3d c3 a8 83 3e
       -0.19682483 -0.062122636 0.11714825 0.25714692
000200 d3 5f e0 3e af 08 88 3e 2c 95 b1 bd dd 02 be bd
       0.43823108 0.26569125 -0.086710304 -0.0927789
000210 f8 64 32 3d 2b 5a 98 3e 65 8c 97 3e ac d7 f1 bd
       0.043553323 0.29756293 0.295993 -0.11808714
000220 6e c8 08 be e8 d9 e0 3d 7e 59 18 3e f3 aa a3 3d
       -0.13357708 0.10979062 0.14877889 0.0799159
000230 14 67 96 be 79 9e 23 be dc cb 0d bd f5 64 c6 ba
       -0.29375517 -0.15978421 -0.034618244 -0.0015136289
000240 3d d3 4e 3d d4 3f 2c be ae df 84 3d 65 65 1a 3b
       0.05049442 -0.16821223 0.06487976 0.002355897
000250 87 81 59 3d 7b ab 0e 3c a0 35 82 bc b6 24 59 3e
       0.053102043 0.008707876 -0.015894711 0.2120541
000260 5f 05 57 3e c1 30 ef 3d 8b de 12 be c6 03 ce 3d
       0.20998143 0.11679221 -0.14342706 0.100593135
000270 fc 19 82 3c cd 3e b3 3e 29 2e 89 3e 6f 6f 95 bd
       0.015881531 0.3500885 0.2679303 -0.07296645
000280 ab 51 84 3d 3c 8f b4 be d9 29 e8 3d 68 fb fc 3e
       0.064608894 -0.3526553 0.11336107 0.49410558
000290 0f 8f fd bc 89 5b 6d 3e 7c 4d 8d be 62 62 a9 be
       -0.030952005 0.23179449 -0.27598178 -0.33082873
0002a0 7f f4 d9 3e 1c e0 e5 3d 3c de 96 3e bb 5f 67 3d
       0.42569348 0.11224386 0.29466426 0.05648778
0002b0 08 2d c7 be d8 bc 56 be ab a8 87 3d 81 3a 5b bc
       -0.38901544 -0.20970476 0.06623968 -0.013380648
0002c0 8c 0d 12 be 43 86 45 bd 76 bd c6 bd 43 be 8e 3d
       -0.1426298 -0.048223745 -0.097041056 0.06969883
0002d0 52 bb e5 3d 52 1e 8b be f0 8d 08 be d4 e8 75 3e
       0.11217369 -0.2717157 -0.13335395 0.24014598
0002e0 e6 8b 09 3d f8 09 23 3e 81 d2 07 bf 36 13 26 be
       0.033580683 0.15921772 -0.5305558 -0.16218266
0002f0 76 fe a3 3e cd 5c 81 3d b6 cc ee 3e fb 04 c3 be
       0.32030076 0.063165285 0.46640557 -0.38089737
000300 8c b4 04 bf 39 80 85 3e fc 5b 82 3e 98 74 d1 3e
       -0.5183799 0.2607439 0.25460804 0.40909266
000310 2e 5f 0d 3e ec cd 03 bf 40 b3 51 be 49 30 2e 3d
       0.1380584 -0.51486087 -0.20478535 0.042526517
000320 e8 a4 2b be b8 b6 65 be ae b0 cb 3c b8 99 c4 bd
       -0.16762125 -0.22432983 0.02486452 -0.09599632
000330 66 5f 2a be eb 0f c8 3d 35 da 9a be e6 3c 85 bd
       -0.16637954 0.09768661 -0.30244604 -0.06505756
000340 b3 50 bf 3d 90 a0 f8 bd 56 40 87 3d af a3 e7 be
       0.09341564 -0.1214 0.06604068 -0.45242068
000350 50 bb c8 be e9 42 2d 3e b6 d1 08 bd cd d8 e4 3e
       -0.39205408 0.16920055 -0.03340312 0.44696656
000360 41 54 c5 be 4c 7b 21 bf e7 5e 7a 3e 8e 83 03 3d
       -0.38540843 -0.6307876 0.24450265 0.032107882
000370 f8 6b c8 3e e1 8f ba 3d 1e 20 bc be b1 0c b0 be
       0.39144874 0.09109474 -0.36743253 -0.34384683
000380 75 4a 59 be b9 8f e8 3e 29 b8 16 3e ec ba 2d be
       -0.2121981 0.45422152 0.14718689 -0.16965836
000390 fa 58 28 be 74 c8 fc 3d f7 e2 c8 bc 93 ea 17 bf
       -0.16440192 0.12342921 -0.024522288 -0.59342307
0003a0 76 d4 05 bf e2 24 e5 bd 62 18 3b 3d 2b 82 f2 be
       -0.52277315 -0.111886755 0.04567755 -0.47364935
0003b0 a3 64 91 be f1 d9 5e 3e 09 ad 45 3e 33 67 b6 3d
       -0.28397092 0.21762826 0.19304289 0.089064024
0003c0 2e 3b 92 3d a6 84 c8 3e d6 49 06 3f ba 63 ac 3e
       0.07140194 0.39163703 0.52456415 0.33669835
0003d0 7c ba e8 3c 56 b2 12 3e ca a6 35 3e 50 c2 fc bb
       0.028409235 0.14325842 0.17739406 -0.0077135935
0003e0 c0 12 00 bd 08 b6 03 3e 35 a3 d2 3e 26 e3 40 3e
       -0.03126788 0.12862408 0.41140142 0.1883665
0003f0 b0 e9 4a bc 85 0c f4 bd 3d 3e 10 be 2e 23 c0 bc
       -0.012384817 -0.119164504 -0.14086242 -0.023454275

block.0.bias f4 [6]
000000 28 3a 9b be 55 09 b8 be 05 3d 70 bf f2 c2 39 bf
       -0.30317807 -0.3594462 -0.9384311 -0.7256309
000010 01 b8 08 bf ef e5 db be
       -0.5340577 -0.42948863

block.2.weight f4 [16, 6, 5, 5]
000000 77 a4 77 bd 4a 3d 1b bd 67 a9 9f bd 8d ca 84 bc
       -0.06045958 -0.037900247 -0.07795983 -0.016209865
000010 fd 1e b1 3c d3 03 07 3e 31 8a 18 bc 27 b3 8a bc
       0.021621222 0.13185053 -0.009310291 -0.01693113
000020 94 dd aa bd 01 cd 4d 3c d3 de 72 3e 1d 06 ba 3d
       -0.08343044 0.012561084 0.23717813 0.09083197
000030 d3 30 00 3d 5a 6c aa 3d 99 b3 b1 bc 90 a4 8d 3e
       0.031296562 0.08321448 -0.021692084 0.27664614
000040 41 b4 11 3e 49 2c 0b 3e 47 3e 83 3d e4 1a 16 bc
       0.14228918 0.13591112 0.06408363 -0.009161685
000050 ba 99 67 3e 18 50 13 3e 03 72 a6 3d 71 aa f3 3d
       0.22617236 0.14386022 0.08127215 0.118977435
000060 ac 00 79 3d 96 a9 4c 3e c4 0b b6 bc 3a e2 65 bd
       0.060791656 0.19986567 -0.022222407 -0.05612395
000070 7b 4f 62 bd bd 43 76 be 92 5d 28 3e 12 9a e4 3c
       -0.05525158 -0.24049278 0.16441944 0.027905498
000080 8b f7 c0 bb ae bb 80 bd 43 d4 1d be ff 24 74 3b
       -0.0058888844 -0.06285797 -0.15413003 0.0037253497
000090 18 af 36 3e 47 e4 03 3e 79 13 28 3d 28 ab 0a be
       0.1784023 0.1288005 0.041034196 -0.13541853
0000a0 a4 2c 7f bd e0 df 28 bd 97 5b 02 3e 29 5a 19 3e
       -0.062298432 -0.04122913 0.12730251 0.149758
0000b0 a0 57 14 3b cc 6f 58 be 18 8b 86 be 51 2d 1a be
       0.0022635236 -0.21136397 -0.26277995 -0.1505635
0000c0 c1 e8 ef bc d9 82 0a 3e 7c 09 3c 3e 10 11 39 3e
       -0.02928579 0.13526477 0.18362993 0.18072915
0000d0 9f a0 93 3c 90 fe e0 3d b5 41 d2 3d c5 65 14 3e
       0.018020926 0.10986054 0.10266439 0.14491947
0000e0 c7 06 38 3e 8b 1a 04 bd 86 03 48 bd 71 fa 9c bc
       0.17971335 -0.032251876 -0.048831485 -0.019162389
0000f0 85 29 e2 3d d8 46 41 3e 42 34 57 3d b8 a1 36 bd
       0.110430755 0.18874681 0.05254007 -0.04458782
000100 bd ed f7 bd e7 0c fd 3d 9c 01 8b 3e 17 4a 2a 3e
       -0.12105892 0.123559766 0.27149665 0.16629826
000110 a6 98 2b be b5 0e 07 be 2b 0c 41 bc 4b b5 39 3d
       -0.1675745 -0.13189204 -0.011782686 0.04533891
000120 59 4e 9e 3d 26 2d 91 bd 95 32 1c be b8 75 64 3d
       0.077297874 -0.070886895 -0.1525367 0.055776328
000130 1c 92 51 bd a7 89 5c 3d 09 01 f7 bd 85 14 11 bd
       -0.05116473 0.053842213 -0.12060744 -0.03541996
000140 f6 c2 5c 3b 1c a6 92 bd f9 bf 10 bc 4e 42 83 bd
       0.0033685542 -0.07160589 -0.008834832 -0.06409131
000150 c1 89 aa 3c 11 e8 d2 3d 27 1b da 3a ca a2 8c bc
       0.02081764 0.102981694 0.0016640172 -0.017167468
000160 a7 5b d3 3b 1a c5 84 3d 79 ef cb bc ff 45 03 be
       0.006450135 0.06482907 -0.024894463 -0.1281967
000170 49 99 9a bd 5e a9 ed 3c 54 9a 68 3e a7 69 1f 3d
       -0.07548768 0.029011425 0.22715122 0.038919117
000180 79 b2 f0 bb 18 d3 2e bd a6 7c 4a 3d e0 a0 21 3e
       -0.0073454943 -0.042681783 0.04943528 0.15784025
000190 64 60 16 bc ef d1 8c 3d 93 55 51 bd 67 a2 82 3d
       -0.009178255 0.06875979 -0.051107 0.06378632
0001a0 af 10 28 3d 1d 09 41 be 85 0c 21 3d 51 66 07 3a
       0.041031536 -0.18851133 0.03931858 0.00051650876
0001b0 15 cc 56 bd 5b 75 0f 3e 01 f9 e4 bd 26 7b 56 bd
       -0.05244072 0.14009611 -0.11180306 -0.052363537
0001c0 c7 e1 ba b9 c0 58 fe bc 9e 0b 91 3d 59 74 2b bd
       -0.00035644902 -0.031048179 0.07082294 -0.041859005
0001d0 6c 09 05 be 9e ab 2a be 8f 1e 53 be 39 c2 e4 3c
       -0.12991875 -0.1666703 -0.20617126 0.027924644
0001e0 6b c7 5c 3e 06 93 f1 3d 74 df 7a bd 4b a0 96 bd
       0.21560447 0.117956206 -0.061248258 -0.07354792
0001f0 92 b4 17 bd a5 ee a2 3d 63 aa 7a bd 7b 25 bb 3c
       -0.03703744 0.07955674 -0.06119765 0.02284502
000200 29 ed de 3d cf 2d 7f 3d 97 df 34 bb 0c 2b 05 be
       0.108850785 0.062299546 -0.002759909 -0.13004702
000210 2b ff ae bc 14 2c 0a 3d 01 08 75 bd 21 43 13 3e
       -0.021361908 0.033733442 -0.059822086 0.14381076
000220 99 8b 24 bb 8d e0 17 be 5a 2e ae bc be a7 86 bd
       -0.002510762 -0.14831753 -0.021262337 -0.06574963
000230 c2 ea f6 3d 1a b6 67 bd ef ac ca bd 93 d5 39 bd
       0.12056495 -0.05657015 -0.09896266 -0.045369696
000240 43 46 79 3d 17 3c c2 3d 1d ed e6 3d 27 24 ae 3d
       0.060858022 0.094841175 0.112756945 0.08502989
000250 e4 0b 64 3e be 85 dc 3e 11 3f 43 3e f6 c4 38 bd
       0.22270161 0.43070787 0.19067027 -0.04510971
000260 80 a3 b3 bd 35 68 ae 3d dc a2 61 bd 1e 88 91 3e
       -0.087714195 0.0851597 -0.055086955 0.28424162
000270 27 1d 1e 3d ab 3c 9e bd 6f b8 1b be 3c 31 03 be
       0.03860202 -0.07726415 -0.15207075 -0.1281175
000280 1c 61 01 3e 61 3f 05 3d 3f af 01 bd aa 89 0c be
       0.126347 0.032531146 -0.03166127 -0.1372439
000290 0a d0 3c be 7f 53 2b 3e 37 22 b1 3d bd 0c aa bb
       -0.18438736 0.1673107 0.08649104 -0.005189507
0002a0 d3 66 1f 3e ee 52 22 be 63 0d 90 3e 73 ea 46 3e
       0.15566568 -0.15851948 0.28135213 0.19425373
0002b0 90 46 64 3e b1 16 24 3e 7d 89 00 3e 3a 19 8c be
       0.22292542 0.16024281 0.12552448 -0.27362996
0002c0 f8 09 0b be 63 34 57 3c 23 db 92 3d 33 4f 07 3e
       -0.13578022 0.013135049 0.07170703 0.13213806
0002d0 d6 b0 c1 bd fe 94 89 bd 1e 36 09 be 95 13 53 3b
       -0.09457557 -0.06717871 -0.1339955 0.0032207717
0002e0 4f 6f 57 3e 4e d1 6c bd 55 6a fc 3c 21 dd 4b bb
       0.21038555 -0.057816796 0.030812422 -0.0031107145
0002f0 2d ad 05 bd 23 a1 18 bb 4b 1c 89 3d 0f 20 00 3e
       -0.032635856 -0.0023289404 0.066948496 0.1251223
000300 b0 27 a7 3d a2 69 00 3d 2c 97 b0 bd 63 ff a6 3d
       0.08161867 0.03135074 -0.08622584 0.0815418
000310 2e 81 00 3e 43 d3 49 3e 28 84 27 3e db d2 38 3d
       0.12549278 0.19709496 0.16359007 0.045122962
000320 2e 15 36 bd 11 cb bb bc 75 e9 81 3e 75 a4 23 3e
       -0.044453792 -0.022923978 0.25373426 0.15980704
000330 87 1d bd 3d a6 ec d2 3c f3 5e cb 3c 0f 5e d7 3d
       0.092341475 0.025747608 0.024825549 0.10515987
000340 3e e1 4c 3e bd 34 52 3e 8e 4a 23 be 4a 36 db bc
       0.20007798 0.2052793 -0.15946409 -0.026759285
000350 fc 8d be 3c 8d 1f 29 3d 16 27 76 3e f0 a0 85 be
       0.023261063 0.041289855 0.24038348 -0.26099348
000360 51 3c 67 be a8 98 8b bc 91 3a 0f be 48 3f 07 be
       -0.22581603 -0.017040566 -0.13987185 -0.13207734
000370 1d c1 df be 5f 77 af be 74 2a 18 be 5f 82 f0 bd
       -0.4370202 -0.3427076 -0.14859945 -0.11743616
000380 b2 e3 81 be ac 85 14 be 45 53 c7 bd 89 80 1f bd
       -0.2536903 -0.14504117 -0.09732679 -0.03894094
000390 64 b5 08 3d 33 9b 1f bd 34 64 26 be 44 ca 10 be
       0.033376113 -0.03896637 -0.16249162 -0.14139658
0003a0 be 56 71 bd bd 36 c1 bd 43 21 59 be d1 56 21 bc
       -0.058920614 -0.094342686 -0.21204095 -0.009847359
0003b0 61 7f ea bc 4d 71 f3 b9 06 fb 87 3d 98 b2 44 bd
       -0.028625192 -0.00046432987 0.06639676 -0.048021883
0003c0 7b dd 98 3e 38 d4 ec 3d a2 35 60 3d 25 d3 ed 3c
       0.29856476 0.11563915 0.05473865 0.029031346
0003d0 16 a3 03 3d da e9 84 3d 13 c4 a4 3d cc f0 5d bd
       0.032137953 0.06489916 0.08045211 -0.05418472
0003e0 be fe 5f be 6e f0 51 bc 26 b2 07 3e 3a 52 5e 3d
       -0.2187452 -0.012813671 0.13251552 0.054277636
0003f0 7a cf 29 bd 3e 4b 1c 3e 13 5f f9 bc 3b 73 a5 bc
       -0.04145763 0.15263078 -0.030440843 -0.020196548

block.2.bias f4 [16]
000000 ee 00 e7 be 65 0d 5f bf 7d 17 b6 be 02 70 1c bf
       -0.45117897 -0.87129813 -0.35564795 -0.6110841
000010 7e 82 18 bf a8 49 90 be 3a aa 13 bf 54 d4 6f bf
       -0.59574115 -0.28181195 -0.5768162 -0.9368336
000020 a0 87 23 bf 9e 29 2c bf 08 30 a5 be 3b bf 23 be
       -0.6387882 -0.67251 -0.32263207 -0.15990917
000030 ad 06 82 bf c1 cf 07 bf d7 94 31 bf cb 4e 95 bf
       -1.0158287 -0.5305138 -0.69367737 -1.1664671

block2.0.weight f4 [64, 400]
000000 c0 7d 64 bd de 55 ea bd 3d 00 57 bd 82 d3 c5 bd
       -0.055783987 -0.11442159 -0.05249046 -0.096594825
000010 0d 05 0e be 29 8e e2 3c 05 98 08 bb 54 98 d8 bc
       -0.13869114 0.027655678 -0.0020842564 -0.026439823
000020 d0 05 b0 bd f1 4f 81 bd eb f9 7d 3d bc 7e 91 3b
       -0.08594859 -0.06314076 0.06200592 0.0044401567
000030 5d 2b 4c bc b6 06 75 3b 53 56 ab 3d dc 0d 3d 3c
       -0.0124615105 0.0037388033 0.083660744 0.011538949
000040 48 5b ba 3c d4 a2 af bb 5f b9 c1 3b 3c 26 29 3e
       0.022748604 -0.005359987 0.0059119905 0.16518492
000050 06 42 30 3e 72 9f 1a bd 87 06 ec bd 3c 7d dd bd
       0.17212686 -0.037749715 -0.115246825 -0.10814902
000060 7a 68 72 3d af 4a 29 3d bb 8f 20 bd ca 2e af 3b
       0.059181668 0.04133099 -0.039199572 0.005346154
000070 df 68 40 3d 73 40 78 3d ae 99 19 3d 2b 5e 4c 3d
       0.046975013 0.06060834 0.037500076 0.049894493
000080 df 00 d5 3c 4b 47 8e bc 06 86 ba 3b 68 57 26 3e
       0.026001392 -0.01736798 0.0056922464 0.1624428
000090 30 18 95 3d 3b c0 d5 3d a3 67 db 3d e5 e9 0c 3c
       0.07280004 0.10437056 0.107131265 0.008600687
0000a0 3d 00 23 3e 54 c0 b9 3d b3 9f 25 3e cb b4 94 3d
       0.1591806 0.09069887 0.16174202 0.07261046
0000b0 cd da b3 3d 7f 81 cf 3d d3 d5 06 3d 33 b2 ac 3d
       0.08781967 0.10132121 0.032918762 0.08432426
0000c0 42 93 b4 3d a2 b8 0e 3d ef 97 dd bc f2 bf 68 bd
       0.0881715 0.03484405 -0.027049987 -0.05682368
0000d0 12 88 c9 3d 68 d3 75 bd 32 1b 12 be ad 91 49 3c
       0.098404065 -0.060016066 -0.14268187 0.012302798
0000e0 a2 e2 8b bb 4b f9 1e bb 14 92 7f bc 71 6e 02 be
       -0.00426896 -0.0024257477 -0.015598793 -0.12737443
0000f0 a1 9d 08 3d 6c 77 c9 bd 1d c3 51 be c8 b4 79 bd
       0.03335345 -0.09837231 -0.20484586 -0.060963422
000100 b2 da 2c be b0 a4 98 3d c0 be 33 bd 6c da 7c bd
       -0.168803 0.07453287 -0.043883085 -0.06173174
000110 6e f0 a7 bc 82 11 78 bd 71 e9 4e 3c 5a 59 a4 bc
       -0.020500388 -0.06056357 0.012628899 -0.020062137
000120 68 48 c4 bd 07 d5 15 be c2 69 8f bd 40 24 39 be
       -0.09584123 -0.14632045 -0.070025936 -0.18080235
000130 df 0e 52 bd fc 0a 28 3d c9 32 1f 3d 3c 3e ec bb
       -0.051283713 0.0410261 0.038866792 -0.0072095674
000140 09 45 82 bd 15 3e 80 3d d8 bb c1 bc 6e 02 60 3c
       -0.06360824 0.06261841 -0.023649141 0.013672454
000150 72 3e 0f 3d ec f1 6d bd 80 fe 0f bc c1 67 dc bd
       0.034971662 -0.058092043 -0.008788705 -0.10761977
000160 97 fb 8c bd ee df 32 bd e5 e9 dd bd 3e 79 8d bd
       -0.068839245 -0.043670587 -0.108356275 -0.06907891
000170 1c f3 0f be b6 51 4b be 83 38 02 3b bc 35 b7 bd
       -0.14057583 -0.19855389 0.001987011 -0.08945796
000180 2f 25 6c be ef 40 94 be 73 d0 83 be 58 56 4e bd
       -0.2306106 -0.2895579 -0.25744972 -0.050375313
000190 7a a0 4d be 7e 1f dd bc 92 43 70 bc 78 e1 ba bd
       -0.20080748 -0.026992556 -0.0146645475 -0.09125036
0001a0 98 8d 0f be 2f f9 39 bd 63 40 e9 bb f0 c1 27 bd
       -0.14018857 -0.045403656 -0.007118271 -0.040956438
0001b0 3e ab ae 3b ba c9 74 bd 5a 52 55 3d fe 1e a6 bc
       0.0053304723 -0.059762694 0.05208049 -0.02027845
0001c0 63 89 79 3c 76 dd f1 3c d2 35 01 be 32 3b 48 3d
       0.015230509 0.029524546 -0.12618187 0.048884578
0001d0 ef 1d a6 bd d9 fd 70 be 0f 07 44 bd f9 6d 6b 3d
       -0.08111178 -0.23534335 -0.047858294 0.057477925
0001e0 80 94 e5 bd ff f3 80 be 7f 8c 2e be 13 74 31 3d
       -0.11209965 -0.25186154 -0.17045783 0.043323588
0001f0 c3 61 88 3d 1c 22 5a bd b8 43 43 3d 40 2e e5 3c
       0.066592716 -0.053255185 0.047672004 0.027976155
000200 db 93 9e bd 8f f3 b1 3d 3e f4 02 be c6 02 b1 3d
       -0.07743045 0.08689033 -0.12788484 0.08643107
000210 54 02 ec bc 8a 7d b3 bd 03 94 9a 3d 65 f9 d0 bc
       -0.028809704 -0.08764179 0.07547762 -0.025509546
000220 81 af 77 bd 04 c5 eb 3c 5d 7f a2 3d f6 64 c8 3d
       -0.060470108 0.028780468 0.07934449 0.09784882
000230 03 1f a6 3d 46 0d 91 bc 88 27 5f 3d f1 36 26 3e
       0.08111384 -0.017706525 0.05448106 0.16231896
000240 2e 17 f8 3d 94 83 86 3c 31 07 93 3d 09 21 18 3e
       0.12113796 0.016420163 0.07179106 0.14856352
000250 54 02 73 3d da 28 97 3d c7 6c d8 bd b4 a8 80 3d
       0.059328392 0.07380839 -0.10567623 0.062821776
000260 85 ac 2f 3c 27 64 5e 3d ca 70 a6 bc e7 49 ea bd
       0.010722284 0.05429473 -0.020317454 -0.11439877
000270 5a b2 23 3a 2c e0 f5 3d 42 1a a0 3d 78 55 8c 3d
       0.0006244533 0.12005648 0.07817508 0.06852239
000280 fc da 74 3c 19 b0 aa bc f5 ce 53 3d 3e c7 a4 3d
       0.014944788 -0.020835923 0.05171104 0.08045815
000290 1b 10 b7 3d 46 d5 28 3e fb 59 8a 3d b0 43 b4 3d
       0.08938619 0.16487607 0.06755444 0.08801973
0002a0 33 ff ac 3d ee cc 40 bd 6a b1 57 bc 7f c4 8c bd
       0.08447113 -0.047070436 -0.013164857 -0.06873416
0002b0 e0 87 14 bd 47 b5 54 bd 4d a3 27 be 52 25 c1 bc
       -0.036262393 -0.051930692 -0.16370888 -0.023577366
0002c0 96 0e dd bd ff 54 31 3c a3 04 98 3b 41 6c 9b 3c
       -0.10793798 0.010823487 0.0046392246 0.018972518
0002d0 be ba 81 bd 9f 1f 25 3c aa fa b4 bd 78 73 ed 3c
       -0.06334446 0.01007834 -0.08836873 0.028985724
0002e0 8f 8a 80 bc 88 e2 27 bd ff 54 a7 bd 2f 1a 88 bd
       -0.01569107 -0.04098752 -0.081705086 -0.06645619
0002f0 ce 48 1a be 0d f6 ca bd 3a 9d 0a bc 97 40 29 be
       -0.15066835 -0.09910212 -0.008460337 -0.16528545
000300 40 76 57 be 5e 26 53 be 2c 50 b0 bd e1 33 c3 3c
       -0.21041203 -0.20620105 -0.086090416 0.023828449
000310 af 4e 1d be 1a 88 2c be ce 20 41 be 09 45 a1 bd
       -0.15362047 -0.16848794 -0.1886017 -0.078744955
000320 d2 ac a8 3b 5d 08 62 bd 1e 75 1c 3d e5 d2 94 bd
       0.005147555 -0.055183757 0.03819763 -0.072667874
000330 6e 9f 96 bd 7a 28 b0 bb ae 21 bd bb 3e d3 b0 3d
       -0.073546275 -0.005375919 -0.005771837 0.08634041
000340 68 c2 2a bb df f6 1b 3c 56 8d 74 3d 3c 11 46 3d
       -0.0026055817 0.009519308 0.0597051 0.04835628
000350 09 7d 9b 3d 58 ee cf 3d 76 dd cf 3a 64 5a 3a 3d
       0.07592208 0.10152882 0.0015858847 0.04549636
000360 d4 33 2d 3e 89 19 a3 3d 1e fc fe 3a 05 61 7d 3d
       0.16914302 0.07963855 0.0019453799 0.061860103
000370 69 94 ba bc 6e 73 03 bc 6c 31 97 bd f4 cf 69 bd
       -0.022775846 -0.008023126 -0.07382473 -0.057083085
000380 5a fe 02 3e 60 52 5e 3c 28 21 e8 bd 32 b9 8f bd
       0.1279234 0.013569444 -0.11334449 -0.07017745
000390 13 86 07 bd b5 d4 8e 3c 8a c7 02 bb 94 f3 c7 bc
       -0.033086848 0.017435411 -0.001995536 -0.02440814
0003a0 95 ec b6 3d 24 1a e0 bb 84 eb a8 3c c8 6c 56 3c
       0.08931843 -0.0068390537 0.020620115 0.013087459
0003b0 74 61 11 bd d4 59 86 bd 96 d7 2b bd b4 77 2b bd
       -0.03549333 -0.06560102 -0.041953646 -0.041862205
0003c0 73 16 8d bd 68 2f 78 bd 7f df b6 bd 5a c0 d6 bd
       -0.068890475 -0.060592085 -0.08929347 -0.10485907
0003d0 9b ad c3 bd b8 f3 03 3e a3 33 92 3d 4f 5c 74 3d
       -0.09554597 0.1288594 0.07138755 0.059658345
0003e0 86 f7 14 3d e1 b5 a3 bd 6b 51 c3 bd 9b 4c 70 3c
       0.03636887 -0.07993675 -0.095370136 0.014666702
0003f0 d4 ce a5 38 18 1a 8a bc 0a 26 7b bd 30 39 be bd
       7.906338e-05 -0.016858146 -0.061315574 -0.092882514

block2.0.bias f4 [64]
000000 81 b9 d6 3d dc 30 db bd 52 aa 65 bd 0b 33 3b bc
       0.10484601 -0.107026786 -0.056070633 -0.011425744
000010 c1 d4 7c 3e 58 68 43 bd 11 be 0d 3d 4c b8 21 be
       0.24690534 -0.04770693 0.03460509 -0.1579296
000020 ff 7d 08 be 15 d8 5c bd 28 07 36 3e 67 9b 32 bd
       -0.13329314 -0.05391701 0.17776167 -0.043605234
000030 2c 95 97 bd 03 7d d8 bd c5 c6 07 be 99 ba 07 be
       -0.07401499 -0.10570719 -0.13259418 -0.13254775
000040 14 90 01 3e c2 03 32 3d 21 02 ed bb 38 48 ec 3d
       0.12652618 0.043460615 -0.00723292 0.11537212
000050 d8 8b de 3c 72 be 21 be cb cc 83 bd 8b 1d be bd
       0.027166292 -0.15795305 -0.064355455 -0.092829786
000060 f6 bc 76 3d 3b 7d 90 bd e3 9a 69 bd ad b7 0e bb
       0.0602388 -0.07055136 -0.057032477 -0.002177696
000070 a4 6e 55 bd 90 ad b9 bd 27 bb 32 3e bc 0d 55 3d
       -0.05210747 -0.090663075 0.17454205 0.05201505
000080 77 5f 4b bb aa f1 ad bd f5 fc 69 bd cb 26 1f be
       -0.0031032243 -0.084933594 -0.057126004 -0.15542142
000090 6d 0f ab 3d c5 04 be bd 9f 34 77 bd b5 c5 d8 3d
       0.083525516 -0.092782535 -0.060352918 0.105845846
0000a0 b2 97 cc 3d b8 00 94 bb f2 5d 40 bd 80 17 4f 3e
       0.09989871 -0.0045166872 -0.046964593 0.20223808
0000b0 7d 81 5d bc 54 de 1a 3d 33 d4 08 bc 55 88 2b be
       -0.013519642 0.037809685 -0.0083513735 -0.16751225
0000c0 5e 98 ee bc a0 08 2f bd ba e0 90 bc 2e 0d 47 bd
       -0.029125389 -0.042732835 -0.017685283 -0.048596554
0000d0 5e 86 b3 bc 2f f6 3d bb 18 01 26 be 37 80 aa bd
       -0.021914657 -0.0028985848 -0.16211355 -0.08325236
0000e0 2f 52 b8 bd 6c a3 5b bd 8b 51 8b bd 5f a3 dc 3d
       -0.0900005 -0.053622648 -0.068026625 0.10773348
0000f0 ef 5a 53 3d 72 8a db 3b 16 ae 21 3e 7f 05 fa 3c
       0.051600393 0.0066998536 0.15789065 0.030520199

block2.2.weight f4 [64, 64]
000000 1b 09 80 3d 0c d0 29 be e8 7e 66 3c 47 9d 20 be
       0.06251737 -0.1658327 0.014068343 -0.15684997
000010 69 c5 ab bc b3 6f cf 3c 40 13 ac bd 4c 64 6c 3d
       -0.020968156 0.025321817 -0.08402109 0.057712838
000020 4d 46 87 bd 42 7e 0d be c1 ec ea 3d 48 bb 98 bd
       -0.06605206 -0.13817695 0.114709385 -0.07457596
000030 c8 e9 d9 3c 6d 54 f8 3a 5a d3 93 3d 20 2d c5 bd
       0.026600733 0.0018946059 0.072180465 -0.096277475
000040 5f e6 73 3d 2d 4a 53 bd eb ab 31 3e 47 c1 a2 bc
       0.05954587 -0.05158441 0.17350738 -0.019867552
000050 a7 6d 11 bc 35 42 ca bd 15 14 bd bd ff eb 7e bd
       -0.008876241 -0.09875909 -0.09232346 -0.062236782
000060 9b 63 35 3d b3 84 73 bc 21 48 43 bc 7b a9 89 3d
       0.044284444 -0.014863181 -0.011919052 0.06721779
000070 11 a0 12 be d7 83 b9 3b 28 89 09 bd be d3 12 be
       -0.14318873 0.0056614685 -0.033578068 -0.14338586
000080 f0 57 0e 3d 33 15 3c 3d de 72 ee 3c eb 8a c3 bd
       0.034751832 0.045918655 0.029107507 -0.09547981
000090 fd d6 58 3d 22 98 1e 3e 7c 84 b3 3c ae b3 3e 3d
       0.052939404 0.15487722 0.02191376 0.046558075
0000a0 82 5b 28 3e aa 56 c0 bd 14 6f 9b bd 25 06 cc 3d
       0.16441157 -0.0939153 -0.07589546 0.099621095
0000b0 9c a2 e0 ba 4c 07 9f 3d ff 33 65 bd 7c c0 a4 3d
       -0.0017138305 0.07765064 -0.05595779 0.08044526
0000c0 01 d2 89 3d bb 0a d9 bd 5e 3b b3 bd 5d 0e 9f 3d
       0.06729508 -0.1059775 -0.08751558 0.077664115
0000d0 2b 46 fc 3c c0 60 de bd 5e 4b e4 bd 5c 5e 9d bc
       0.030795177 -0.10858297 -0.11147188 -0.019210033
0000e0 b9 c6 bc bd 29 63 08 be 7f b6 83 bd 03 d2 8e bd
       -0.09217591 -0.13319077 -0.06431293 -0.0697365
0000f0 f5 5e f3 bd 9a b4 e0 bc 42 0e f2 3c ca 2a 11 bc
       -0.11883346 -0.027429868 0.029547814 -0.008860299
000100 af 90 af 3b 96 7e c0 3d 34 c1 94 bc 4c 8d 55 3c
       0.005357824 0.09399144 -0.018158533 0.013034176
000110 74 73 48 be cc 3b b4 3d 42 52 fe 3d 1c 06 02 bd
       -0.19575292 0.08800468 0.12418033 -0.031744108
000120 08 d0 a6 bd ab a4 a9 ba 73 bf 8c be b7 3c d7 bd
       -0.081451476 -0.0012942752 -0.27489814 -0.10509627
000130 ae b2 72 3e 33 d8 af 3d 3b 93 3d bc 77 98 e1 bc
       0.23700973 0.085861586 -0.011570747 -0.027538521
000140 c2 38 53 3e b8 b4 56 bb d2 e0 e6 3c 10 c1 00 be
       0.2062712 -0.0032761525 0.028183375 -0.12573647
000150 cc 2c 16 bd cd 41 11 3d e2 b5 80 bd c3 21 51 be
       -0.036663815 0.035463143 -0.062846914 -0.20423035
000160 cd 35 20 be 93 fe 30 bd bc 19 ff bd 27 b7 53 bd
       -0.15645523 -0.04321153 -0.1245608 -0.05168834
000170 eb f5 5d 3d 7f 31 53 3e 91 fc 8c 3d ff cb 00 bd
       0.054189604 0.2062435 0.06884111 -0.031444546
000180 da 70 10 be d0 5f 39 3d 95 e5 cb bc 71 03 75 3c
       -0.1410555 0.04525739 -0.024889747 0.014954434
000190 df 5a fc bd c6 d6 de bc 4d 43 28 be 8e b6 1a be
       -0.1232202 -0.027202021 -0.16431923 -0.15108702
0001a0 1f 84 82 3e 0a a2 d1 3c 80 86 77 bd df ff 21 bd
       0.25491425 0.025589962 -0.060431004 -0.03955066
0001b0 94 46 69 bb 60 c3 10 3e 6a 39 bd bd ef 74 21 be
       -0.0035595046 0.1413703 -0.092394665 -0.15767263
0001c0 4f b7 52 bc 64 4f 23 3c 0b 3a d6 bd d7 1e eb 39
       -0.012861087 0.009967659 -0.104602896 0.0004484567
0001d0 f2 9f 12 be 37 54 6b 3e dd 57 ca bd 72 6c fc bd
       -0.14318827 0.22981344 -0.0988004 -0.12325372
0001e0 e8 81 2d 3d f8 3f 4d 3e 99 2b d2 bd 97 93 43 3d
       0.042360216 0.20043933 -0.10262222 0.047748175
0001f0 2c 0f e1 bd 08 1c 0e bd 76 82 02 bd 32 be ba bd
       -0.10989222 -0.0346947 -0.0318627 -0.09118308
000200 53 47 b5 bc 23 99 d4 bd dd 7e c3 bd 8b 09 b6 bd
       -0.022128737 -0.10380771 -0.095456816 -0.08888539
000210 3b 28 54 be 51 21 ec bd 22 34 77 3d 53 7a 01 be
       -0.20718472 -0.11529792 0.060352452 -0.12644319
000220 4c 09 55 bc 2e f3 b2 3d c9 e5 20 bc 95 c5 5a be
       -0.013002705 0.08737789 -0.00982041 -0.21364434
000230 7b 8f 1e 3d 4d 69 3b bd 3a 76 de 3c 26 a6 dd 3d
       0.038711052 -0.04575472 0.027155984 0.10822706
000240 65 f7 ad bc 55 88 75 bd 1f e4 ad 3e 53 f1 2e bc
       -0.021236131 -0.05994447 0.33963105 -0.010677653
000250 be 8b 23 bd 1d f2 60 3d fd 7d fc bc a6 ab 77 3e
       -0.03992819 0.054918397 -0.030821795 0.24186572
000260 68 d2 70 bd 60 af 60 bb e7 ce d3 bc 11 ae 8a bd
       -0.05879441 -0.003428422 -0.025855495 -0.06771482
000270 17 20 bd 3d 68 b1 09 be d9 ed 9a bd ee 55 23 bd
       0.09234636 -0.13446581 -0.07564897 -0.03987687
000280 73 dc aa bd 91 a5 31 be 7d b8 87 bd 78 3d 8f 3d
       -0.083428286 -0.17348315 -0.06626985 0.06994146
000290 d0 fc 01 3d 3e 75 b4 bd 0a 4e f1 bd 39 c6 76 bc
       0.03173524 -0.08811425 -0.11782463 -0.015061908
0002a0 66 01 59 bd 38 d2 32 3e 76 8d 90 bd fd ce 9f 3e
       -0.05297985 0.17463005 -0.070582315 0.31212607
0002b0 cf 39 cc 3d d0 80 cd 3d 79 3b 04 be 7f a1 23 be
       0.099719636 0.10034335 -0.12913312 -0.15979575
0002c0 39 89 4e bd e2 ad 01 be f2 ee c5 bd 94 cb c5 bd
       -0.050423834 -0.12663987 -0.09664716 -0.0965797
0002d0 e3 a9 48 3d 4a 12 b9 3b b4 c9 5a 3e fd 14 cf 3d
       0.04899014 0.005647932 0.21366006 0.10111425
0002e0 15 f8 d4 bd 0d e0 a9 bd a3 f9 e2 bd 3e 06 74 bd
       -0.103988804 -0.082946874 -0.11082771 -0.059576266
0002f0 9b 02 ea 3c 80 30 b6 bd 0a 7c 88 bd 27 88 32 be
       0.028565696 -0.088959694 -0.066642836 -0.1743475
000300 3f 26 a2 bb 66 d2 58 be 5d 09 c5 3c dc c4 1b be
       -0.004948407 -0.2117401 0.024052316 -0.15211815
000310 2c 89 44 3e 6f e8 00 be 14 4c cf bd 5a 8c 9a bb
       0.19192952 -0.12588666 -0.101219326 -0.0047164382
000320 bf 31 7d bd c5 06 03 be 4c 49 c5 bc a7 49 6c 3c
       -0.06181502 -0.12795551 -0.024082802 0.014421857
000330 27 9a 1a be f6 d8 79 be 9d 19 83 3d 95 72 4a bc
       -0.15097867 -0.2439917 0.0640137 -0.01235642
000340 15 68 48 3e 3a eb 2a 3d db ba 6d bd 97 44 21 3d
       0.19570954 0.041728236 -0.058039527 0.039372053
000350 36 61 87 be 8e 24 b6 3c 56 e7 36 3e 5e 15 db bd
       -0.26441354 0.022234228 0.17861685 -0.10697435
000360 4b 5b c6 3b dd ff 2e 3e e4 44 1a bd 9b 82 45 3e
       0.0060533634 0.17089792 -0.037663355 0.19288103
000370 2e fd 74 be 06 dd a1 bd cb da ad bd a8 76 8f bb
       -0.23924705 -0.07903485 -0.08488997 -0.0043781586
000380 e1 4d 1e 3e 49 86 16 3e 47 ea a3 bc c2 52 c0 bd
       0.15459396 0.14699663 -0.020009173 -0.09390785
000390 2a 64 65 be 09 e5 cf bd ed 96 2c be 36 77 36 be
       -0.22401491 -0.10151107 -0.16854449 -0.17818913
0003a0 22 8a 66 bc 2e af 3b 3e f9 cc bf bd 26 1f 9b bd
       -0.014071019 0.18328544 -0.09365267 -0.075743005
0003b0 8c fb c9 bc 1b 6f 0a be 18 d9 fd bd 60 7a 39 3d
       -0.02465608 -0.13518946 -0.12394923 0.04528272
0003c0 0d 96 e2 bd fe 6f cb bd c9 2f 27 be c2 db 8b bc
       -0.11063776 -0.0993347 -0.16326822 -0.017072562
0003d0 a6 97 47 3c d1 ed 60 bd a8 fc df 3d d2 29 86 be
       0.012182152 -0.0549143 0.10936862 -0.2620378
0003e0 3c 67 9b bd d2 9e e6 3d 42 81 c2 3d d0 60 dc bd
       -0.0758805 0.11260761 0.0949731 -0.10760653
0003f0 cf 66 b4 bd 35 21 b0 bd f0 b9 78 bd be b4 6b 3e
       -0.08808672 -0.08600084 -0.0607242 0.23018166

block2.2.bias f4 [64]
000000 ed 38 b3 bd e9 fd 22 3e 35 8b ee bd 2b a9 91 3e
       -0.08751092 0.15917172 -0.116476454 0.28449377
000010 9b 12 82 ba e0 dc a9 3e da 13 ea bd 83 c0 46 3e
       -0.0009923758 0.33176327 -0.11429568 0.19409375
000020 97 9c 3b 3e cf bb 82 3d 3f eb b3 3e 9e 5f bb 3d
       0.18321453 0.06383478 0.35140416 0.09149097
000030 51 47 e7 3c 47 15 9c 3e c7 e2 84 3d 23 36 2d 3d
       0.028232248 0.30484983 0.06488567 0.042287957
000040 fb f8 5b 3d 2c 54 04 be a0 0a d1 bc c5 48 65 3e
       0.053704243 -0.12922734 -0.025517762 0.2239104
000050 69 92 0b 3e 46 a0 00 3e 54 f2 14 3d 1b 6d ef bd
       0.1363007 0.1256114 0.036363915 -0.11690732
000060 a3 74 b8 3e 0c 7d 2b 3e 8b 95 26 be b6 6a b7 bc
       0.36026487 0.1674692 -0.16267984 -0.02238975
000070 7f c5 73 3f 1f 3f 90 3e 31 0e c4 3d b6 75 bd 3e
       0.9522323 0.28173158 0.09573019 0.3700387
000080 92 4d bf 3c 59 7a aa bd 33 e4 30 3e 7b c7 20 3e
       0.023352418 -0.08324117 0.17274551 0.15701096
000090 ce de 1a bd 7f ec 11 3c b3 c8 1e be ca 67 74 bd
       -0.03781014 0.008906483 -0.15506248 -0.059669293
0000a0 6a 50 cc bd f3 81 cc 3e d3 de af 3d d7 30 08 3f
       -0.09976275 0.39942893 0.08587422 0.53199524
0000b0 36 af b5 3d 6d f8 24 bd 9a 00 d7 3e 30 d3 b7 3e
       0.088713095 -0.04027598 0.41992646 0.3590331
0000c0 a3 95 af 3d 4a 6c 94 3e 42 94 88 3d 28 8f 9e bd
       0.08573463 0.28988868 0.06668903 -0.07742149
0000d0 05 37 75 3b b7 0a 31 3e fd 1f a6 bd 94 bf 12 bd
       0.0037416827 0.17289244 -0.0811157 -0.035827234
0000e0 d9 ae bc 3d 4c f7 99 3d ce 0e 91 3e 2a 66 dc bc
       0.09213037 0.07517871 0.28331608 -0.026904184
0000f0 1f 95 03 be 00 1c b1 3e d9 37 e2 3c b0 e4 8d 3f
       -0.12849854 0.34591675 0.02761452 1.1085415

block2.4.weight f4 [10, 64]
000000 a1 31 a9 bd fd c2 5b 3b 03 d1 24 3e 4d 44 87 3c
       -0.08261419 0.003353297 0.16095357 0.01651206
000010 0c 0d 0d be a9 94 44 be a1 90 b7 3d 37 07 10 3e
       -0.13774508 -0.19197334 0.08963133 0.14065252
000020 12 59 9c 3e c7 ca 4d 3c fb d1 8d 3e e1 b4 9e bc
       0.30536705 0.012560553 0.27699265 -0.01937336
000030 cf 37 12 3d 42 92 9a bd 95 bb a1 bc 49 70 82 3e
       0.035697754 -0.07547428 -0.019742766 0.25476292
000040 13 e5 2a 3e 0d de 24 3e b1 e9 bf 3d 81 59 63 3c
       0.16688947 0.1610033 0.09370745 0.01387632
000050 35 c4 4c 3e 24 c6 98 3e 65 5e 68 3e 08 2b 70 bc
       0.19996722 0.2983867 0.22692259 -0.014658697
000060 f5 8c c2 bd 25 13 94 3d a7 d0 64 3e a4 e2 75 3e
       -0.09499542 0.07230214 0.2234522 0.24012238
000070 2c 5c d2 bd 49 05 86 3e 4a 76 95 bc bf b3 0a bd
       -0.10271487 0.26175907 -0.018244881 -0.033862825
000080 4f 4a 79 3c da a0 e1 bc 5d 63 b6 bd 8e a9 16 3e
       0.01521547 -0.02754252 -0.08905671 0.14713117
000090 15 b0 1f 3d d9 9a cc 3b d3 d4 0d bd 42 16 b6 3e
       0.038986284 0.006244045 -0.034626793 0.35563856
0000a0 9b 7a 59 3e 30 f4 cb 3e 82 5f 2c 3e 58 5d bc bd
       0.21238177 0.39834738 0.16833308 -0.091974914
0000b0 b7 5c 00 3f 2b 05 07 3e 1e 3a b7 bd ab a7 29 bd
       0.5014147 0.13185565 -0.08946632 -0.041419666
0000c0 29 69 95 bd f9 fa 07 3e b5 d5 4e 3c 4d ba 22 3e
       -0.07295448 0.13279332 0.012624194 0.1589138
0000d0 4e b5 06 3c 37 9f 68 bd 24 76 86 3e 2f 2a 3d 3e
       0.008221937 -0.056792464 0.2626201 0.18473123
0000e0 b2 4a 61 3e 5a 35 cc bd b9 9a 62 3e 45 c5 be 3d
       0.2200115 -0.099711135 0.22129335 0.0931497
0000f0 ff a6 1c 3d 6a ff 36 3d 26 f0 07 3e 40 fd a6 bd
       0.038245197 0.044677176 0.13275203 -0.08153772
000100 59 d3 e7 3d 60 09 e2 bd 34 54 23 3b 14 16 8f 3c
       0.11319608 -0.110369444 0.0024922015 0.017466582
000110 5e da 73 3e 75 3c 38 3c 07 5d 07 be da bc 96 bd
       0.23813769 0.011244883 -0.13219081 -0.07360239
000120 ae 8a 5b bd 37 72 b4 3d f4 e0 5d 3e 35 8e be bd
       -0.053599052 0.08810847 0.21667844 -0.093044676
000130 ca 8d a5 3e f8 3a 71 be c6 51 ca 3d c4 84 82 3e
       0.3233474 -0.23557651 0.09878878 0.25491917
000140 9c 07 2b 3e 9e d8 45 3e fb 9e 70 3e b6 ef 29 be
       0.16702121 0.19320914 0.23498146 -0.16595349
000150 86 07 45 bd c6 74 34 3e 50 6d 46 3e bf dc dd 3d
       -0.048102878 0.1762267 0.19377637 0.108331196
000160 f9 eb 02 bd 11 45 90 3e 78 88 07 3e 38 c3 eb 3d
       -0.031963322 0.28177693 0.13235652 0.115118444
000170 b4 20 95 bc 0e 52 66 be e2 21 6f 3e ff 6c 8e 3e
       -0.01820407 -0.22492239 0.23352769 0.27817532
000180 b1 3d 43 bc 22 36 ad 3c f9 40 d7 3c 6b c3 0c 3e
       -0.011916564 0.021143977 0.026276099 0.13746421
000190 b8 36 a4 3e a8 e6 9c bd f9 22 bc 3c db 67 20 3e
       0.32072997 -0.07661182 0.022965895 0.15664618
0001a0 d1 59 2d 3d bb 99 a0 bd 84 ee eb 3d 90 a4 47 bc
       0.042321984 -0.07841822 0.115201026 -0.012185231
0001b0 b7 ab dd 3e 73 95 b6 bd 0d d1 98 3d 4d e7 70 bd
       0.4329507 -0.08915224 0.07461748 -0.058814336
0001c0 26 25 35 3e 07 36 27 be a2 ce 86 3e 59 02 34 3e
       0.17689952 -0.16329204 0.26329523 0.1757902
0001d0 3a 16 87 3e e1 7b 5d 3e 1f f0 2d be 10 dc e2 bd
       0.26384145 0.21629287 -0.1698613 -0.1107713
0001e0 06 7f 48 3e d7 8b 90 3e da 2d 4a bd 22 0d 88 3e
       0.19579706 0.2823169 -0.049360134 0.2657252
0001f0 c6 dc 4c 3e c1 d9 fc bb 5f 1b 8d 3e ac ea f0 bd
       0.20006093 -0.007716388 0.27559945 -0.1176351
000200 bd 95 55 3e e0 0c 6c 3e ce 3e 7b 3e 5a b6 62 bc
       0.20857902 0.23051786 0.24535677 -0.013837421
000210 69 b7 15 3e be 4e dd 3d ab 1f 26 3e cf f5 ca 3d
       0.14620747 0.108060345 0.16223018 0.099101655
000220 95 10 d5 3e f2 4a 16 3d 05 42 ac 3e 27 1c 06 3d
       0.41614214 0.036692567 0.3364412 0.032741692
000230 0a 59 de bd fa 36 12 3e 53 ca dd bc 76 cb 0f 3e
       -0.108568266 0.14278784 -0.027074015 0.14042458
000240 de da eb 3c a8 a0 54 be 7d be a3 bd ac e2 62 3e
       0.028790887 -0.2076441 -0.07995317 0.22156781
000250 79 d9 ee 3c 0b 3f 81 3d 43 e8 bb bd 4f a7 10 3a
       0.029156433 0.063108526 -0.0917516 0.0005518095
000260 fb fb 4e 3c cb 2d 49 bd 8c 5a 80 bd db 1c 1c 3e
       0.012633319 -0.049115937 -0.062672704 0.15245382
000270 b9 72 64 3e 21 3b 95 3e 75 7e 26 3e 78 50 fd 3d
       0.22309388 0.29146674 0.16259177 0.12368864
000280 ed a9 26 3d 6d ef b1 bd 4a 69 98 3e a0 a8 df 3e
       0.040689398 -0.08688245 0.2976783 0.43683338
000290 9d 2e 49 bd ec e2 04 3c 44 4b 93 bd 7f d1 89 3e
       -0.04911672 0.008110743 -0.0719209 0.26917645
0002a0 f2 fc e4 3d 00 6c 52 3e 7d 99 55 bd 98 8a 2e 3e
       0.11181058 0.20549011 -0.05214833 0.17045057
0002b0 8b 11 76 3e a7 c4 95 3e 7f 37 68 3e 64 c4 85 be
       0.2403013 0.29251596 0.2267742 -0.26126397
0002c0 84 76 0d bd 52 66 bf 3d 92 bd 90 3d b9 b9 c2 bc
       -0.034536853 0.09345688 0.07067408 -0.0237702
0002d0 28 0f 58 3d b4 2a 24 3d ac 5f 80 3e 09 6f 97 3e
       0.05274883 0.040079787 0.25072992 0.295769
0002e0 38 ec 6e 3d c9 0b da bd 58 de ae 3e 16 8b 0e 3e
       0.058330745 -0.10646779 0.3415401 0.13920245
0002f0 1c 71 42 bd 35 0f af 3c 38 19 65 bd 31 15 cf 3e
       -0.04747115 0.021369556 -0.055932254 0.40445855
000300 ea c4 2e bd dc 96 21 bd 6a 1e ac bd d5 bd 35 3e
       -0.04266826 -0.03945051 -0.084042385 0.17748196
000310 3b 16 04 3e 91 a1 b1 3e 41 92 9c 3d 33 74 8e 3e
       0.12899105 0.34693578 0.07645083 0.27823028
000320 38 de ea 3e 0a 2f 80 bd 22 c1 45 3e 37 2a 15 3e
       0.45872664 -0.06258972 0.19311956 0.14566885
000330 8a 8b 8f bd bc 26 3d 3e 09 bf f7 bd b9 b1 06 3d
       -0.07009037 0.18471807 -0.12096984 0.032884333
000340 3c bf bc bd df b0 be bd dd 95 eb bd 5d 44 39 3c
       -0.092161626 -0.09311079 -0.115031935 0.011307803
000350 a7 3f 98 3d 1f 98 a9 bc 4f 02 98 3d 03 ec 9c bd
       0.07434016 -0.02070242 0.07422315 -0.07662203
000360 5e ed 42 3e 60 5f 13 3e 99 82 fc 3c 24 54 96 3d
       0.19035861 0.14391851 0.030823993 0.07340267
000370 29 6b d3 3e 34 a6 04 3e 5e 04 7f 3d 2a 18 97 bd
       0.41292694 0.12954026 0.062260024 -0.07377656
000380 c9 0b 12 3e df 22 26 3d 88 31 42 3e 6f 2c 8a 3e
       0.14262308 0.0405606 0.18964207 0.26987025
000390 53 16 62 3d d6 3d 55 bc d4 93 5a bd 57 a3 2a 3d
       0.05519707 -0.013015231 -0.053363636 0.04165968
0003a0 80 ff 45 3e 77 f7 62 3e 53 eb f1 3c 28 be a2 bd
       0.19335747 0.22164713 0.029531157 -0.07946426
0003b0 e9 7c be bc 32 f2 38 3d 33 df 88 3e c0 bd 51 3e
       -0.023252921 0.04515285 0.26732787 0.2048254
0003c0 cb d3 a3 3c 91 21 4d 3e d3 b5 41 bd 72 85 d2 3d
       0.019998452 0.20032336 -0.04729254 0.10279359
0003d0 a2 42 c8 bc cb 71 3b be 88 f0 54 3d f7 85 c9 3b
       -0.024445836 -0.18305127 0.0519872 0.006150003
0003e0 0d 97 09 3e 00 36 98 bd 2e 67 a9 3d fd 57 01 be
       0.13436528 -0.07432175 0.08271633 -0.12631221
0003f0 a5 63 21 3e 68 90 63 bd 57 0f 11 be f0 72 07 3f
       0.15760668 -0.05555764 -0.14166008 0.52909756

block2.4.bias f4 [10]
000000 b1 a5 e7 bd d4 c3 fe be a4 fa f8 bc 45 10 e3 3e
       -0.113109 -0.4975878 -0.030392952 0.4434835
000010 df 1a 83 3f 60 f3 8c 3c 37 15 30 3f db 88 17 3e
       1.0242575 0.017205894 0.6878237 0.147983
000020 3a 69 b7 3e db 8c 88 3e
       0.3582247 0.26669964
